…
2024-10-19 21:00:45,818 - Namespace(data_dir='./data/', output_dir='output/', data_name='ml-20m', llm_path='./bert-base-uncased', do_eval=False, load_model='TCTRec', train_name='Oct-19-2024_20-59-03', num_items=131262, num_users=138493, num_neg_sample=100, lr=0.003, weight_decay=0, batch_size=128, num_epochs=64, patience=10, num_workers=4, model_type='BSARec', max_seq_length=50, dropout_rate=0.5, hidden_size=64, num_hidden_layers=2, attn_dropout_rate=0.5, n_heads=8, e_layers=4, alpha=0.8, device=device(type='cuda'), checkpoint_path='output/ml-20m/BSARec.pt', dim_user_discrete_data=[], dim_item_discrete_data=20)
2024-10-19 21:00:45,895 - BSARec(
  (item_emb): Embedding(131263, 64, padding_idx=0)
  (pos_emb): Embedding(50, 64)
  (dropout): Dropout(p=0.5, inplace=False)
  (attention_blocks): ModuleList(
    (0-3): 4 x TransformerBlock(
      (attention): MultiheadAttention(
        (out_proj): NonDynamicallyQuantizableLinear(in_features=64, out_features=64, bias=True)
      )
      (filter_layer): FrequencyLayer(
        (out_dropout): Dropout(p=0.5, inplace=False)
        (layer_norm): LayerNorm((64,), eps=1e-12, elementwise_affine=True)
      )
      (ffn): Sequential(
        (0): Linear(in_features=64, out_features=64, bias=True)
        (1): ReLU()
        (2): Dropout(p=0.5, inplace=False)
        (3): Linear(in_features=64, out_features=64, bias=True)
      )
      (norm1): LayerNorm((64,), eps=1e-05, elementwise_affine=True)
      (norm2): LayerNorm((64,), eps=1e-05, elementwise_affine=True)
      (dropout): Dropout(p=0.5, inplace=False)
    )
  )
)
2024-10-19 21:00:46,600 - training start
2024-10-22 18:35:46,093 - read <class 'data_processing.ml_20m'>
2024-10-22 18:37:29,971 - Namespace(data_dir='./data/', output_dir='output/', data_name='ml-20m', llm_path='./bert-base-uncased', do_eval=False, load_model='TCTRec', train_name='Oct-22-2024_18-35-46', num_items=131262, num_users=138493, num_neg_sample=100, lr=0.003, weight_decay=0, batch_size=128, num_epochs=64, patience=5, num_workers=4, model_type='BSARec', max_seq_length=50, dropout_rate=0.5, hidden_size=64, num_hidden_layers=2, attn_dropout_rate=0.5, n_heads=8, e_layers=4, alpha=0.8, device=device(type='cuda'), checkpoint_path='output/ml-20m/BSARec.pt', dim_user_discrete_data=[], dim_item_discrete_data=20)
2024-10-22 18:37:30,077 - BSARec(
  (item_emb): Embedding(131263, 64, padding_idx=0)
  (pos_emb): Embedding(50, 64)
  (dropout): Dropout(p=0.5, inplace=False)
  (attention_blocks): ModuleList(
    (0-3): 4 x TransformerBlock(
      (attention): MultiheadAttention(
        (out_proj): NonDynamicallyQuantizableLinear(in_features=64, out_features=64, bias=True)
      )
      (filter_layer): FrequencyLayer(
        (out_dropout): Dropout(p=0.5, inplace=False)
        (layer_norm): LayerNorm((64,), eps=1e-12, elementwise_affine=True)
      )
      (ffn): Sequential(
        (0): Linear(in_features=64, out_features=64, bias=True)
        (1): ReLU()
        (2): Dropout(p=0.5, inplace=False)
        (3): Linear(in_features=64, out_features=64, bias=True)
      )
      (norm1): LayerNorm((64,), eps=1e-05, elementwise_affine=True)
      (norm2): LayerNorm((64,), eps=1e-05, elementwise_affine=True)
      (dropout): Dropout(p=0.5, inplace=False)
    )
  )
)
2024-10-22 18:37:30,816 - training start
2024-10-22 18:38:24,655 - Epoch: 1/64 Batch: 1/1082 Time: 53.8s Loss: 7.21   Average_Loss: 7.21
2024-10-22 18:39:53,736 - Epoch: 1/64 Batch: 33/1082 Time: 142.9s Loss: 4.49   Average_Loss: 5.82
2024-10-22 18:42:06,963 - Epoch: 1/64 Batch: 65/1082 Time: 276.1s Loss: 2.81   Average_Loss: 4.70
…
2024-10-26 04:06:10,173 - Namespace(data_dir='./data/', output_dir='output/', data_name='ml-20m', llm_path='./bert-base-uncased', do_eval=True, load_model='BSARec', train_name='Oct-26-2024_04-04-30', num_items=131262, num_users=138493, num_neg_sample=100, lr=0.003, weight_decay=0, batch_size=128, num_epochs=64, patience=5, num_workers=4, seed=42, model_type='BSARec', max_seq_length=50, dropout_rate=0.5, hidden_size=64, num_hidden_layers=2, attn_dropout_rate=0.5, n_heads=8, e_layers=4, alpha=0.8, device=device(type='cuda'), checkpoint_path='output/ml-20m/BSARec.pt', dim_user_discrete_data=[], dim_item_discrete_data=20)
2024-10-26 04:06:10,248 - BSARec(
  (item_emb): Embedding(131263, 64, padding_idx=0)
  (pos_emb): Embedding(50, 64)
  (dropout): Dropout(p=0.5, inplace=False)
  (attention_blocks): ModuleList(
    (0-3): 4 x TransformerBlock(
      (attention): MultiheadAttention(
        (out_proj): NonDynamicallyQuantizableLinear(in_features=64, out_features=64, bias=True)
      )
      (filter_layer): FrequencyLayer(
        (out_dropout): Dropout(p=0.5, inplace=False)
        (layer_norm): LayerNorm((64,), eps=1e-12, elementwise_affine=True)
      )
      (ffn): Sequential(
        (0): Linear(in_features=64, out_features=64, bias=True)
        (1): ReLU()
        (2): Dropout(p=0.5, inplace=False)
        (3): Linear(in_features=64, out_features=64, bias=True)
      )
      (norm1): LayerNorm((64,), eps=1e-05, elementwise_affine=True)
      (norm2): LayerNorm((64,), eps=1e-05, elementwise_affine=True)
      (dropout): Dropout(p=0.5, inplace=False)
    )
  )
)
2024-10-26 04:06:10,430 - Load model from output/ml-20m/BSARec.pt for test!
2024-10-26 04:06:10,430 - -----------------test-----------------
2024-10-26 05:22:52,206 - Epoch 2, total_user:138493.0 nDCG@5: 0.5136612406121699, HR5: 0.8971500364639368, nDCG@10: 0.528355576316499, HR10: 0.944358198609316, nDCG@20: 0.533782048331402, HR20: 0.9660127226646834
…
