…
2024-10-19 16:13:19,051 - Namespace(data_dir='./data/', output_dir='output/', data_name='ml-20m', llm_path='./bert-base-uncased', do_eval=False, load_model='TCTRec', train_name='Oct-19-2024_16-11-35', num_items=131262, num_users=138493, num_neg_sample=100, lr=0.003, weight_decay=0, batch_size=128, num_epochs=64, patience=10, num_workers=4, model_type='SASRec', max_seq_length=50, dropout_rate=0.5, hidden_size=64, num_hidden_layers=2, attn_dropout_rate=0.5, n_heads=8, e_layers=4, alpha=0.8, llm=False, device=device(type='cuda'), checkpoint_path='output/ml-20m/SASRec.pt', dim_user_discrete_data=[], dim_item_discrete_data=20)
2024-10-19 16:13:19,146 - SASRec(
  (item_emb): Embedding(131263, 64, padding_idx=0)
  (pos_emb): Embedding(50, 64)
  (dropout): Dropout(p=0.5, inplace=False)
  (attention_blocks): ModuleList(
    (0-3): 4 x TransformerBlock(
      (attention): MultiheadAttention(
        (out_proj): NonDynamicallyQuantizableLinear(in_features=64, out_features=64, bias=True)
      )
      (ffn): Sequential(
        (0): Linear(in_features=64, out_features=64, bias=True)
        (1): ReLU()
        (2): Dropout(p=0.5, inplace=False)
        (3): Linear(in_features=64, out_features=64, bias=True)
      )
      (norm1): LayerNorm((64,), eps=1e-05, elementwise_affine=True)
      (norm2): LayerNorm((64,), eps=1e-05, elementwise_affine=True)
      (dropout): Dropout(p=0.5, inplace=False)
    )
  )
)
2024-10-19 16:13:19,837 - training start
2024-10-21 02:39:26,495 - read <class 'data_processing.ml_20m'>
2024-10-21 02:41:13,078 - Namespace(data_dir='./data/', output_dir='output/', data_name='ml-20m', llm_path='./bert-base-uncased', do_eval=False, load_model='TCTRec', train_name='Oct-21-2024_02-39-26', num_items=131262, num_users=138493, num_neg_sample=100, lr=0.003, weight_decay=0, batch_size=128, num_epochs=64, patience=10, num_workers=4, model_type='SASRec', max_seq_length=50, dropout_rate=0.5, hidden_size=64, num_hidden_layers=2, attn_dropout_rate=0.5, n_heads=8, e_layers=4, alpha=0.8, llm=False, device=device(type='cuda'), checkpoint_path='output/ml-20m/SASRec.pt', dim_user_discrete_data=[], dim_item_discrete_data=20)
2024-10-21 02:41:13,175 - SASRec(
  (item_emb): Embedding(131263, 64, padding_idx=0)
  (pos_emb): Embedding(50, 64)
  (dropout): Dropout(p=0.5, inplace=False)
  (attention_blocks): ModuleList(
    (0-3): 4 x TransformerBlock(
      (attention): MultiheadAttention(
        (out_proj): NonDynamicallyQuantizableLinear(in_features=64, out_features=64, bias=True)
      )
      (ffn): Sequential(
        (0): Linear(in_features=64, out_features=64, bias=True)
        (1): ReLU()
        (2): Dropout(p=0.5, inplace=False)
        (3): Linear(in_features=64, out_features=64, bias=True)
      )
      (norm1): LayerNorm((64,), eps=1e-05, elementwise_affine=True)
      (norm2): LayerNorm((64,), eps=1e-05, elementwise_affine=True)
      (dropout): Dropout(p=0.5, inplace=False)
    )
  )
)
2024-10-21 02:41:13,863 - training start
2024-10-21 02:42:04,656 - Epoch: 1/64 Batch: 1/1082 Time: 50.8s Loss: 7.57   Average_Loss: 7.57
2024-10-21 02:43:46,041 - Epoch: 1/64 Batch: 33/1082 Time: 152.2s Loss: 4.29   Average_Loss: 5.72
2024-10-21 02:45:48,658 - Epoch: 1/64 Batch: 65/1082 Time: 274.8s Loss: 2.75   Average_Loss: 4.57
…
2024-10-26 02:41:29,750 - Namespace(data_dir='./data/', output_dir='output/', data_name='ml-20m', llm_path='./bert-base-uncased', do_eval=True, load_model='SASRec', train_name='Oct-26-2024_02-39-40', num_items=131262, num_users=138493, num_neg_sample=100, lr=0.003, weight_decay=0, batch_size=128, num_epochs=64, patience=5, num_workers=4, seed=42, model_type='SASRec', max_seq_length=50, dropout_rate=0.5, hidden_size=64, num_hidden_layers=2, attn_dropout_rate=0.5, n_heads=8, e_layers=4, alpha=0.8, llm=False, device=device(type='cuda'), checkpoint_path='output/ml-20m/SASRec.pt', dim_user_discrete_data=[], dim_item_discrete_data=20)
2024-10-26 02:41:29,848 - SASRec(
  (item_emb): Embedding(131263, 64, padding_idx=0)
  (pos_emb): Embedding(50, 64)
  (dropout): Dropout(p=0.5, inplace=False)
  (attention_blocks): ModuleList(
    (0-3): 4 x TransformerBlock(
      (attention): MultiheadAttention(
        (out_proj): NonDynamicallyQuantizableLinear(in_features=64, out_features=64, bias=True)
      )
      (ffn): Sequential(
        (0): Linear(in_features=64, out_features=64, bias=True)
        (1): ReLU()
        (2): Dropout(p=0.5, inplace=False)
        (3): Linear(in_features=64, out_features=64, bias=True)
      )
      (norm1): LayerNorm((64,), eps=1e-05, elementwise_affine=True)
      (norm2): LayerNorm((64,), eps=1e-05, elementwise_affine=True)
      (dropout): Dropout(p=0.5, inplace=False)
    )
  )
)
2024-10-26 02:41:30,008 - Load model from output/ml-20m/SASRec.pt for test!
2024-10-26 02:41:30,008 - -----------------test-----------------
2024-10-26 03:57:48,839 - Epoch 2, total_user:138493.0 nDCG@5: 0.36525831262449265, HR5: 0.685897482183215, nDCG@10: 0.4076722333648513, HR10: 0.8231101932949679, nDCG@20: 0.4274231035109235, HR20: 0.9019156202840577
…
