…
2024-10-24 21:35:00,152 - Namespace(data_dir='./data/', output_dir='output/', data_name='ml-20m', llm_path='./bert-base-uncased', do_eval=False, load_model='TCTRec', train_name='Oct-24-2024_21-33-20', num_items=131262, num_users=138493, num_neg_sample=100, lr=0.003, weight_decay=0, batch_size=128, num_epochs=64, patience=5, num_workers=4, model_type='TCTRec', max_seq_length=50, dropout_rate=0.5, hidden_size=64, num_hidden_layers=2, attn_dropout_rate=0.5, n_heads=8, e_layers=4, alpha=0.8, device=device(type='cuda'), checkpoint_path='output/ml-20m/TCTRec.pt', dim_user_discrete_data=[], dim_item_discrete_data=20)
2024-10-24 21:35:00,343 - TCTRec(
  (BiTransformer): Bidimensional_Transformer(
    (encoder): Encoder(
      (embedding): Embedding(131263, 64, padding_idx=0)
      (ivert_embedding): Linear(in_features=50, out_features=64, bias=True)
      (static_embedding): Linear(in_features=1, out_features=64, bias=True)
      (dropout): Dropout(p=0.5, inplace=False)
      (projector): Linear(in_features=64, out_features=50, bias=True)
      (pos_emb): Embedding(50, 64)
      (layers): ModuleList(
        (0-3): 4 x EncoderLayer(
          (mha): MultiheadAttention(
            (out_proj): NonDynamicallyQuantizableLinear(in_features=64, out_features=64, bias=True)
          )
          (ivert_mha): MultiheadAttention(
            (out_proj): NonDynamicallyQuantizableLinear(in_features=64, out_features=64, bias=True)
          )
          (ff): FeedForward(
            (linear1): Linear(in_features=64, out_features=64, bias=True)
            (dropout): Dropout(p=0.5, inplace=False)
            (linear2): Linear(in_features=64, out_features=64, bias=True)
          )
          (ivert_ff): FeedForward(
            (linear1): Linear(in_features=64, out_features=64, bias=True)
            (dropout): Dropout(p=0.5, inplace=False)
            (linear2): Linear(in_features=64, out_features=64, bias=True)
          )
          (layernorm1): LayerNorm((64,), eps=1e-05, elementwise_affine=True)
          (layernorm2): LayerNorm((64,), eps=1e-05, elementwise_affine=True)
          (ivert_layernorm1): LayerNorm((64,), eps=1e-05, elementwise_affine=True)
          (ivert_layernorm2): LayerNorm((64,), eps=1e-05, elementwise_affine=True)
          (dropout): Dropout(p=0.5, inplace=False)
        )
      )
    )
  )
)
2024-10-24 21:35:00,921 - training start
2024-10-24 21:35:52,274 - Epoch: 1/64 Batch: 1/1082 Time: 51.4s Loss: 5.45   Average_Loss: 5.45
2024-10-24 21:37:29,462 - Epoch: 1/64 Batch: 33/1082 Time: 148.5s Loss: 3.60   Average_Loss: 4.52
2024-10-24 21:39:45,652 - Epoch: 1/64 Batch: 65/1082 Time: 284.7s Loss: 2.26   Average_Loss: 3.71
…
