…
oad_model='TCTRec', train_name='Oct-25-2024_21-39-25', num_items=3952, num_users=6040, num_neg_sample=100, lr=0.003, weight_decay=0, batch_size=64, num_epochs=64, patience=5, num_workers=4, model_type='TCTRec', max_seq_length=50, dropout_rate=0.5, hidden_size=64, num_hidden_layers=2, attn_dropout_rate=0.5, n_heads=8, e_layers=4, alpha=0.8, device=device(type='cuda'), checkpoint_path='output/ml-1m/TCTRec.pt', dim_user_discrete_data=[2, 7, 21, 3439], dim_item_discrete_data=18)2024-10-25 21:39:30,587 - TCTRec(  (BiTransformer): Bidimensional_Transformer(    (encoder): Encoder(      (embedding): Embedding(3953, 64, padding_idx=0)      (ivert_embedding): Linear(in_features=50, out_features=64, bias=True)      (static_embedding): Linear(in_features=5, out_features=64, bias=True)      (dropout): Dropout(p=0.5, inplace=False)      (projector): Linear(in_features=64, out_features=50, bias=True)      (pos_emb): Embedding(50, 64)      (layers): ModuleList(        (0-3): 4 x EncoderLayer(          (mha): MultiheadAttention(            (out_proj): NonDynamicallyQuantizableLinear(in_features=64, out_features=64, bias=True)          )          (ivert_mha): MultiheadAttention(            (out_proj): NonDynamicallyQuantizableLinear(in_features=64, out_features=64, bias=True)          )          (ff): FeedForward(            (linear1): Linear(in_features=64, out_features=64, bias=True)            (dropout): Dropout(p=0.5, inplace=False)            (linear2): Linear(in_features=64, out_features=64, bias=True)          )          (ivert_ff): FeedForward(            (linear1): Linear(in_features=64, out_features=64, bias=True)            (dropout): Dropout(p=0.5, inplace=False)            (linear2): Linear(in_features=64, out_features=64, bias=True)          )          (layernorm1): LayerNorm((64,), eps=1e-05, elementwise_affine=True)          (layernorm2): LayerNorm((64,), eps=1e-05, elementwise_affine=True)          (ivert_layernorm1): LayerNorm((64,), eps=1e-05, elementwise_affine=True)          (ivert_layernorm2): LayerNorm((64,), eps=1e-05, elementwise_affine=True)          (dropout): Dropout(p=0.5, inplace=False)        )      )    )  ))2024-10-25 21:39:31,186 - training start2024-10-25 21:39:38,689 - Epoch: 1/64 Batch: 1/95 Time: 7.5s Loss: 5.53   Average_Loss: 5.532024-10-25 21:39:58,194 - Epoch: 1/64 Batch: 33/95 Time: 27.0s Loss: 3.31   Average_Loss: 4.292024-10-25 21:40:20,499 - Epoch: 1/64 Batch:
…
'TCTRec', train_name='Oct-26-2024_01-14-33', num_items=3952, num_users=6040, num_neg_sample=100, lr=0.003, weight_decay=0, batch_size=128, num_epochs=64, patience=5, num_workers=4, seed=42, model_type='TCTRec', max_seq_length=50, dropout_rate=0.5, hidden_size=64, num_hidden_layers=2, attn_dropout_rate=0.5, n_heads=8, e_layers=4, alpha=0.8, device=device(type='cuda'), checkpoint_path='output/ml-1m/TCTRec.pt', dim_user_discrete_data=[2, 7, 21, 3439], dim_item_discrete_data=18)2024-10-26 01:14:38,530 - TCTRec(  (BiTransformer): Bidimensional_Transformer(    (encoder): Encoder(      (embedding): Embedding(3953, 64, padding_idx=0)      (ivert_embedding): Linear(in_features=50, out_features=64, bias=True)      (static_embedding): Linear(in_features=5, out_features=64, bias=True)      (dropout): Dropout(p=0.5, inplace=False)      (projector): Linear(in_features=64, out_features=50, bias=True)      (pos_emb): Embedding(50, 64)      (layers): ModuleList(        (0-3): 4 x EncoderLayer(          (mha): MultiheadAttention(            (out_proj): NonDynamicallyQuantizableLinear(in_features=64, out_features=64, bias=True)          )          (ivert_mha): MultiheadAttention(            (out_proj): NonDynamicallyQuantizableLinear(in_features=64, out_features=64, bias=True)          )          (ff): FeedForward(            (linear1): Linear(in_features=64, out_features=64, bias=True)            (dropout): Dropout(p=0.5, inplace=False)            (linear2): Linear(in_features=64, out_features=64, bias=True)          )          (ivert_ff): FeedForward(            (linear1): Linear(in_features=64, out_features=64, bias=True)            (dropout): Dropout(p=0.5, inplace=False)            (linear2): Linear(in_features=64, out_features=64, bias=True)          )          (layernorm1): LayerNorm((64,), eps=1e-05, elementwise_affine=True)          (layernorm2): LayerNorm((64,), eps=1e-05, elementwise_affine=True)          (ivert_layernorm1): LayerNorm((64,), eps=1e-05, elementwise_affine=True)          (ivert_layernorm2): LayerNorm((64,), eps=1e-05, elementwise_affine=True)          (dropout): Dropout(p=0.5, inplace=False)        )      )    )  ))2024-10-26 01:14:38,547 - Load model from output/ml-1m/TCTRec.pt for test!2024-10-26 01:14:38,547 - -----------------test-----------------2024-10-26 01:17:44,784 - Epoch 2, total_user:6040.0 nDCG@5: 0.41418821175285836, HR5: 0.7642384105960265, nDCG@10: 0.4536850897148683, 
…
