…
ad_model='TCTRec', train_name='Oct-24-2024_21-14-38', num_items=1682, num_users=943, num_neg_sample=100, lr=0.003, weight_decay=0, batch_size=32, num_epochs=64, patience=5, num_workers=4, model_type='TCTRec', max_seq_length=50, dropout_rate=0.5, hidden_size=64, num_hidden_layers=2, attn_dropout_rate=0.5, n_heads=8, e_layers=4, alpha=0.8, device=device(type='cuda'), checkpoint_path='output/ml-100k/TCTRec.pt', dim_user_discrete_data=[2, 61, 21, 795], dim_item_discrete_data=19)2024-10-24 21:14:38,732 - TCTRec(  (BiTransformer): Bidimensional_Transformer(    (encoder): Encoder(      (embedding): Embedding(1683, 64, padding_idx=0)      (ivert_embedding): Linear(in_features=50, out_features=64, bias=True)      (static_embedding): Linear(in_features=5, out_features=64, bias=True)      (dropout): Dropout(p=0.5, inplace=False)      (projector): Linear(in_features=64, out_features=50, bias=True)      (pos_emb): Embedding(50, 64)      (layers): ModuleList(        (0-3): 4 x EncoderLayer(          (mha): MultiheadAttention(            (out_proj): NonDynamicallyQuantizableLinear(in_features=64, out_features=64, bias=True)          )          (ivert_mha): MultiheadAttention(            (out_proj): NonDynamicallyQuantizableLinear(in_features=64, out_features=64, bias=True)          )          (ff): FeedForward(            (linear1): Linear(in_features=64, out_features=64, bias=True)            (dropout): Dropout(p=0.5, inplace=False)            (linear2): Linear(in_features=64, out_features=64, bias=True)          )          (ivert_ff): FeedForward(            (linear1): Linear(in_features=64, out_features=64, bias=True)            (dropout): Dropout(p=0.5, inplace=False)            (linear2): Linear(in_features=64, out_features=64, bias=True)          )          (layernorm1): LayerNorm((64,), eps=1e-05, elementwise_affine=True)          (layernorm2): LayerNorm((64,), eps=1e-05, elementwise_affine=True)          (ivert_layernorm1): LayerNorm((64,), eps=1e-05, elementwise_affine=True)          (ivert_layernorm2): LayerNorm((64,), eps=1e-05, elementwise_affine=True)          (dropout): Dropout(p=0.5, inplace=False)        )      )    )  ))2024-10-24 21:14:39,473 - training start2024-10-24 21:14:44,241 - Epoch: 1/64 Batch: 1/30 Time: 4.8s Loss: 5.41   Average_Loss: 5.412024-10-24 21:14:46,555 - Epoch 1/64,  Loss: 4.514747325579325, Total time: 0h 0m 7s2024-10-24 21:14:46,555 - -----------------validate----
…
2024-10-26 01:13:56,812 - Namespace(data_dir='./data/', output_dir='output/', data_name='ml-100k', llm_path='./bert-base-uncased', do_eval=True, load_model='TCTRec', train_name='Oct-26-2024_01-13-56', num_items=1682, num_users=943, num_neg_sample=100, lr=0.003, weight_decay=0, batch_size=128, num_epochs=64, patience=5, num_workers=4, seed=42, model_type='TCTRec', max_seq_length=50, dropout_rate=0.5, hidden_size=64, num_hidden_layers=2, attn_dropout_rate=0.5, n_heads=8, e_layers=4, alpha=0.8, device=device(type='cuda'), checkpoint_path='output/ml-100k/TCTRec.pt', dim_user_discrete_data=[2, 61, 21, 795], dim_item_discrete_data=19)
2024-10-26 01:13:56,926 - TCTRec(
  (BiTransformer): Bidimensional_Transformer(
    (encoder): Encoder(
      (embedding): Embedding(1683, 64, padding_idx=0)
      (ivert_embedding): Linear(in_features=50, out_features=64, bias=True)
      (static_embedding): Linear(in_features=5, out_features=64, bias=True)
      (dropout): Dropout(p=0.5, inplace=False)
      (projector): Linear(in_features=64, out_features=50, bias=True)
      (pos_emb): Embedding(50, 64)
      (layers): ModuleList(
        (0-3): 4 x EncoderLayer(
          (mha): MultiheadAttention(
            (out_proj): NonDynamicallyQuantizableLinear(in_features=64, out_features=64, bias=True)
          )
          (ivert_mha): MultiheadAttention(
            (out_proj): NonDynamicallyQuantizableLinear(in_features=64, out_features=64, bias=True)
          )
          (ff): FeedForward(
            (linear1): Linear(in_features=64, out_features=64, bias=True)
            (dropout): Dropout(p=0.5, inplace=False)
            (linear2): Linear(in_features=64, out_features=64, bias=True)
          )
          (ivert_ff): FeedForward(
            (linear1): Linear(in_features=64, out_features=64, bias=True)
            (dropout): Dropout(p=0.5, inplace=False)
            (linear2): Linear(in_features=64, out_features=64, bias=True)
          )
          (layernorm1): LayerNorm((64,), eps=1e-05, elementwise_affine=True)
          (layernorm2): LayerNorm((64,), eps=1e-05, elementwise_affine=True)
          (ivert_layernorm1): LayerNorm((64,), eps=1e-05, elementwise_affine=True)
          (ivert_layernorm2): LayerNorm((64,), eps=1e-05, elementwise_affine=True)
          (dropout): Dropout(p=0.5, inplace=False)
        )
      )
    )
  )
)
2024-10-26 01:13:56,945 - Load model from output/ml-100k/TCTRec.pt for test!
2024-10-26 01:13:56,945 - -----------------test-----------------
2024-10-26 01:14:30,382 - Epoch 2, total_user:943.0 nDCG@5: 0.19925285367174578, HR5: 0.38918345705196183, nDCG@10: 0.25376763124155005, HR10: 0.5683987274655355, nDCG@20: 0.2880663987970814, HR20: 0.7073170731707317
…
